E2/exercise_2/runs/2_2_simple_nn/model_best.ckpt (torch, 49259 bytes, 20 tensors)

conv1.weight f4 [4, 1, 4, 4, 4]
0	0xbd32c61a	-0.043645956
1	0xbde093ca	-0.109656885
2	0x3e04afaa	0.12957636
3	0x3d1598a6	0.03652253
4	0x3be0a3a9	0.0068554473
5	0xbda66165	-0.08124045
6	0x3d9d8bd2	0.07692684
7	0xbda41491	-0.08011735
8	0x3d9a3319	0.07529277
9	0xbe101369	-0.14069904
10	0xbe12a621	-0.14321186
11	0xbe202f95	-0.15643151
12	0x3d556bc4	0.052104726
13	0xbc3ec367	-0.011643267
14	0xbd9e3065	-0.07724074
15	0xbd054eb6	-0.032545768
16	0xbd8e6667	-0.069531254
17	0x3e089142	0.13336661
18	0x3e3285ae	0.17433807
19	0x3d894750	0.06703055
20	0x3dc69194	0.096957356
21	0x3d7abf78	0.061217755
22	0x3e064a47	0.13114272
23	0x3d287033	0.041122627
24	0x3e03b484	0.1286183
25	0xbd6150c1	-0.055008654
26	0xbb09ed5e	-0.0021046023
27	0xbe132972	-0.14371279
28	0x3d834edc	0.064115256
29	0x3e1312ce	0.14362642
30	0x3e02284f	0.12710689
31	0xbd8bdf68	-0.06829721
32	0x3e177aa0	0.14792871
33	0x3cb1d81b	0.021709492
34	0xbd4389e1	-0.047738913
35	0xbddd561b	-0.10807439
36	0x3e136b1d	0.14396329
37	0x3dd76a92	0.105183735
38	0x3e271bfa	0.16319266
39	0x3dab284a	0.08357294
40	0xbdbe4da6	-0.09292154
41	0x3e04c20f	0.12964652
42	0xbda397ca	-0.07987936
43	0xbe0925d9	-0.13393344
44	0x3e01adcf	0.12663959
45	0x3cbb394b	0.022854468
46	0x3d1ca4e0	0.038243175
47	0xbde3770f	-0.11106693
48	0x3dd4b87e	0.103867516
49	0xbd80a008	-0.062805235
50	0xbbcf4bc5	-0.006326171
51	0x3d028f91	0.031875197
52	0xbdc1ceb7	-0.09463256
53	0xbbd3eb28	-0.006467242
54	0xbc5d7871	-0.013517485
55	0xbd4d76bb	-0.05016206
56	0xbcbfb5d5	-0.023402134
57	0x3d9cd9c7	0.07658725
58	0xbd80c0f2	-0.062868014
59	0xbe1bd718	-0.1521877
60	0xbd59188e	-0.053001933
61	0x3d5df1e6	0.05418577
62	0x3d934e6b	0.071926914
63	0xbd5327c8	-0.05155161
64	0x3d88817b	0.066653214
65	0xbd95983f	-0.07304429
66	0x3d141356	0.036151253
67	0x3c60d633	0.013722944
68	0x3dab5797	0.08366316
69	0x3cd302c2	0.025758151
70	0x3d9715f2	0.073772326
71	0x3d4128c3	0.047158014
72	0xbdb2bce9	-0.08727438
73	0x3dbeb85c	0.093125075
74	0x3e00b239	0.12567987
75	0x3cb0813e	0.021546002
76	0xbd0a1e38	-0.033720225
77	0x3d212084	0.03933765
78	0xbd0c517a	-0.03425739
79	0xbcf9b803	-0.030483251
80	0x3d7f6748	0.062354356
81	0x3d555306	0.05208113
82	0x3e199783	0.14999203
83	0xbd6999ef	-0.05703157
84	0x3d81e28e	0.0634204
85	0x3d8817b1	0.06645144
86	0x3dafed1e	0.085901484
87	0x3a9e25ef	0.0012065748
88	0x3df24a9e	0.11830638
89	0x3db7f98f	0.089831464
90	0x3e3cd103	0.18439107
91	0xbcccc0f1	-0.024994345
92	0xbd6072bc	-0.05479692
93	0xbe0ff803	-0.14059453
94	0xbd6cc627	-0.05780616
95	0xbd743fd4	-0.059631184
96	0x3dd75a04	0.10515216
97	0x3d19b536	0.03752633
98	0xbd79c6d9	-0.06098065
99	0x3d167183	0.036729347
100	0xba57e95a	-0.0008236371
101	0x3d369cd0	0.04458314
102	0x385255c5	5.014778e-05
103	0x3dfe32b2	0.12412013
104	0x3e0279d2	0.12741783
105	0x3e2582e0	0.16163206
106	0x3e29c4e2	0.16579011
107	0x3e21954d	0.1577961
108	0xbdbe39b9	-0.092883535
109	0xbe1e8537	-0.15480505
110	0xbc30b9c2	-0.010786476
111	0xbe251957	-0.16122948
112	0xbd4dd782	-0.050254352
113	0x3dbd0262	0.0922897
114	0xbcc24fe2	-0.023719732
115	0xbde7b7b4	-0.113143355
116	0xbd9bbad6	-0.076039955
117	0x3e1b0360	0.15138006
118	0x3e18fbab	0.14939754
119	0x3dea8426	0.114509866
120	0x3dd1d262	0.102452055
121	0x3d80ee7c	0.06295487
122	0x3e46af12	0.19402722
123	0x3e1a1c89	0.15049948
124	0x3c3a038e	0.011353387
125	0x3d4c7551	0.04991657
126	0xbe2116d5	-0.15731366
127	0xbda34591	-0.07972253
128	0xbdca21a8	-0.09869701
129	0x3d403cd1	0.046933
130	0x3d2d6dfd	0.04234122
131	0x3af98f69	0.0019039932
132	0x3da23451	0.07920135
133	0x3c81a104	0.015823849
134	0xbd4c1ea1	-0.049833898
135	0xbdcf9d64	-0.10137442
136	0xbc5db938	-0.013532929
137	0x3dc4392a	0.09581216
138	0x3dc5548e	0.09635268
139	0xbd5a07b2	-0.053229995
140	0xbd067677	-0.03282782
141	0xbdbd2b2c	-0.0923675
142	0xbdeebf2c	-0.11657557
143	0xbde914b0	-0.11380899
144	0xbd538007	-0.05163577
145	0xbc02c51a	-0.007981563
146	0xbd7ea7a8	-0.06217161
147	0x3d0e8196	0.03479155
148	0x3da4f4c9	0.080545016
149	0x3df228bc	0.11824176
150	0x3de966cc	0.1139656
151	0x3d412be4	0.047160998
152	0xbc5fd1f7	-0.013660899
153	0x3e0bbe9c	0.1364693
154	0x3daf5ee7	0.08563023
155	0xbd00b16f	-0.031419214
156	0xbdd53e3d	-0.10412262
157	0x3d7b9d50	0.06142932
158	0x3b5d2db2	0.003374916
159	0xbdbba055	-0.0916144
160	0xbdc14620	-0.094372034
161	0x3c8342c2	0.016023044
162	0xbdb54b4d	-0.08852253
163	0x3c3c6913	0.011499661
164	0xbc4d1f74	-0.012519706
165	0x3dcb88fa	0.099382356
166	0x3cff9ff8	0.031204209
167	0xbd999e72	-0.07500924
168	0x3d92fed2	0.07177509
169	0x3dcfcc2b	0.10146364
170	0x3e357094	0.17718726
171	0x3c37698b	0.011194597
172	0xbe042d92	-0.12908009
173	0x3db23630	0.08701742
174	0x3dd652be	0.104650006
175	0xbc8c6889	-0.01713969
176	0xbce29345	-0.027658114
177	0xbc847b66	-0.016172122
178	0xbc5ae388	-0.013359912
179	0xbdc448d3	-0.095842026
180	0x3db245e3	0.08704736
181	0x3e2d31ad	0.16913481
182	0x3dc8b023	0.097992204
183	0x3dc153cb	0.0943981
184	0x3e068874	0.1313799
185	0x3e4116a1	0.18856288
186	0x3e0a8aa9	0.13529457
187	0x3cbcab90	0.023031026
188	0x3d73a4c9	0.059483323
189	0xbde720cc	-0.112855524
190	0xbdefd6c5	-0.11710886
191	0xbdef259a	-0.11677094
192	0xbdc1f37d	-0.0947027
193	0xbde478f5	-0.11155883
194	0xbdb2632e	-0.08710323
195	0xbd0ba33c	-0.03409122
196	0x3dafcf12	0.085844174
197	0xbd871276	-0.06595318
198	0x3dc1c23d	0.09460876
199	0x3ddaaf07	0.10677915
200	0x3c84f472	0.016229842
201	0x3d5ac676	0.053411923
202	0x3d0feb0f	0.03513628
203	0xbc4714b1	-0.012150929
204	0x3d6b63ff	0.05746841
205	0x3d2ec7c5	0.042670984
206	0xbda1afd7	-0.07894867
207	0xbd4c3c73	-0.049862336
208	0xbdec690a	-0.11543472
209	0xbe150394	-0.14552146
210	0xbdac89e8	-0.08424741
211	0x3d91cca6	0.07119112
212	0x3dc8fa5f	0.098133795
213	0xbe2e8bae	-0.17045471
214	0xbcfc89b0	-0.030827373
215	0x3dde4d0e	0.10854541
216	0x3d80759a	0.06272431
217	0xbd7b1601	-0.06130028
218	0xbdd20d83	-0.102564834
219	0x3daf04b2	0.085458174
220	0xbcecc03e	-0.028900262
221	0xbe4dabaf	-0.20085023
222	0xbdf2fedd	-0.118650176
223	0x3dc9aa6a	0.09846957
224	0x3d4b8842	0.049690492
225	0x3d85c5e4	0.06531885
226	0xbd36eea2	-0.04466117
227	0x3e11f1af	0.14252351
228	0x3d2155ee	0.03938859
229	0x3d8f3312	0.06992163
230	0xbb39305a	-0.002825758
231	0x3ac49f98	0.0015001176
232	0xbcd555ff	-0.026041983
233	0xbe2ccae6	-0.16874275
234	0x3d4ebd76	0.050473653
235	0xbc2a01b6	-0.0103763845
236	0x3ddb7e71	0.10717476
237	0xbd51e7da	-0.0512465
238	0xbe1e1950	-0.15439343
239	0xbdbf22a3	-0.09332778
240	0x3e3490da	0.17633381
241	0x3d89e089	0.0673228
242	0x3b5c5bbe	0.0033624019
243	0x3c25d97e	0.010122655
244	0xbd1ee906	-0.038796447
245	0x3e15db21	0.14634372
246	0x3d500bd0	0.050792515
247	0x3d122dc4	0.035688177
248	0x3d8a6eb2	0.06759395
249	0xbc9337b0	-0.01797089
250	0x3e134fd1	0.14385916
251	0xbcb14c9e	-0.02164298
252	0xbc93bcdb	-0.01803439
253	0x3d00a52b	0.031407516
254	0xbdd29ba9	-0.10283596
255	0xbae33f6e	-0.0017337629

conv1.bias f4 [4]
0	0xbd574eed	-0.052565504
1	0x3cc1a545	0.023638377
2	0xbcfbbc5e	-0.030729469
3	0xbd4defa0	-0.050277352

bn1.weight f4 [4]
0	0x3f17aa4d	0.59244233
1	0x3f2a259e	0.6646365
2	0x3f2a50cd	0.6652954
3	0x3fb9bdb7	1.4511021

bn1.bias f4 [4]
0	0xbde7818c	-0.11304006
1	0xbe6c34e0	-0.23067045
2	0xbe4eff31	-0.20214535
3	0x3e49ecaf	0.19719194

bn1.running_mean f4 [4]
0	0xbdbf0f3f	-0.0932908
1	0xbdbd2d79	-0.09237189
2	0xbd9869e4	-0.07442072
3	0xbd3ab014	-0.045578077

bn1.running_var f4 [4]
0	0x3d50828e	0.050905757
1	0x3ebfbd52	0.37449127
2	0x3dd91010	0.10598767
3	0x3c27e47d	0.010247347

conv2.weight f4 [8, 4, 4, 4, 4]
0	0xbc84c17f	-0.016205547
1	0x3c6ed647	0.014577455
2	0x3c47501a	0.012165094
3	0xbd35519e	-0.04426729
4	0xbd42e89d	-0.04758512
5	0xbda992ee	-0.08279978
6	0xbceb4532	-0.028719518
7	0xbd8b7a8c	-0.06810483
8	0xbd8d5168	-0.06900293
9	0xbd1b9434	-0.037983134
10	0x3d5f5fa9	0.054534588
11	0xbc5ee6c2	-0.013604822
12	0x3d3d259b	0.04617844
13	0x3cdc3932	0.026882742
14	0x3d435b44	0.04769446
15	0x3d88a0c2	0.06671287
16	0xbc5224e3	-0.012826177
17	0xbc369c9c	-0.011145737
18	0xbd88c346	-0.066778705
19	0x3b51686e	0.0031953114
20	0xbd2d3551	-0.042287175
21	0xbc1c9c7c	-0.009558793
22	0x3c3cba6a	0.011519054
23	0xbd35e2ee	-0.04440587
24	0xbdafe440	-0.08588457
25	0xbce3a3e8	-0.027788118
26	0xbcf4489c	-0.02981978
27	0x3d8a9d3c	0.06768271
28	0xbd935041	-0.071930416
29	0xbc8f37a8	-0.017482594
30	0x3c760107	0.015014893
31	0x3da0dce8	0.078546345
32	0xbc0fb2f3	-0.008770692
33	0x3bf16fa8	0.007368047
34	0xbd7605ff	-0.060064312
35	0xbd88f850	-0.06687987
36	0xbd9fec02	-0.07808687
37	0xba77a417	-0.00094467535
38	0xbd21bf61	-0.039489154
39	0xbd867009	-0.06564338
40	0xbc998a71	-0.018742772
41	0xbce3a385	-0.027787933
42	0xbafb6168	-0.001917881
43	0xbd69767c	-0.05699776
44	0xbc0a03a8	-0.008423723
45	0x3d663d8f	0.05621105
46	0xbc69c5b4	-0.0142683275
47	0x3d099a55	0.033594448
48	0x3c0dd31d	0.00865629
49	0xbd7a6455	-0.06113084
50	0xbd8233e3	-0.06357553
51	0x397dce98	0.00024204922
52	0xbd847681	-0.06467915
53	0xbd079dc9	-0.03310946
54	0x3d19f159	0.037583683
55	0x3cdb983c	0.02680599
56	0xba1d99ba	-0.0006011982
57	0x3cd6b754	0.026210465
58	0x3d0bc1bd	0.03412031
59	0xbcd80b4a	-0.02637257
60	0x3c8feefc	0.017570011
61	0xbd16b36a	-0.036792196
62	0x3d2d2132	0.042267986
63	0xbcc863c1	-0.024461629
64	0xbd1a353e	-0.037648432
65	0xbdc6c1f7	-0.097049646
66	0xbd7839e5	-0.060602088
67	0xbd9cee1a	-0.07662602
68	0xbdc22ade	-0.094808325
69	0x3c312ae1	0.010813446
70	0xbd932550	-0.07184851
71	0xbd610875	-0.054939706
72	0xbd0aa281	-0.033846382
73	0xbd66dc0a	-0.05636219
74	0x3d3ab401	0.04558182
75	0xbc8b0bb6	-0.016973358
76	0x3cfbf2d9	0.030755447
77	0x3d1fb2bb	0.03898881
78	0x3d53bbe8	0.051692873
79	0xbc59fb03	-0.013304475
80	0xbd72f609	-0.05931667
81	0xbdbe5689	-0.09293849
82	0xbcde3e4e	-0.027129319
83	0x3c5f3269	0.013622859
84	0xbcac5751	-0.02103773
85	0xbcbbc8d6	-0.022922914
86	0xbd0532e2	-0.03251923
87	0x3b2b5918	0.0026145633
88	0xbdae173c	-0.08500525
89	0xbd793166	-0.060838126
90	0xbda7d629	-0.08195145
91	0x3d2445c6	0.040105604
92	0x3d89dbb8	0.06731361
93	0x3da3cedb	0.07998439
94	0x3da23324	0.079199106
95	0x3d82c147	0.06384521
96	0xbc9a4a99	-0.018834399
97	0x3c14388a	0.009046683
98	0xbd15d9b5	-0.036584575
99	0xbd8a5bac	-0.06755766
100	0xbde1f70e	-0.1103345
101	0xbd5241b5	-0.051332194
102	0xbd187156	-0.03721746
103	0xbd55ff46	-0.0522454
104	0xbb61c73f	-0.0034451035
105	0x3bbc1706	0.0057400493
106	0xbd84c954	-0.06483713
107	0xbd20f601	-0.039297108
108	0x3d311d9f	0.04324114
109	0x3b808af5	0.003922815
110	0x3d05f772	0.032706685
111	0x3c09fc29	0.008421936
112	0xbd44c8e3	-0.048043143
113	0xbd26c3f5	-0.040714223
114	0xbbe58f00	-0.0070055723
115	0x3d49e5c4	0.049291387
116	0xbda1366d	-0.07871709
117	0xbd1b7a53	-0.037958454
118	0xbdad9488	-0.08475596
119	0xbd03a8a1	-0.03214324
120	0xbdd5a0db	-0.10431071
121	0xbdc09bf5	-0.094047464
122	0xbc8576d8	-0.01629202
123	0x3c9bfcdc	0.019041471
124	0xbd5ede7b	-0.054411393
125	0xbd01509d	-0.03157102
126	0xbcb4c83c	-0.022068135
127	0xbc6d1661	-0.014470668
128	0xbd376b5f	-0.04478013
129	0xbdb717fb	-0.08940121
130	0xbdd16b2b	-0.10225519
131	0xbc414ac2	-0.011797609
132	0xbd9010a0	-0.07034421
133	0xbcbb147e	-0.02283692
134	0xbdb78d8e	-0.08962546
135	0xbd9f54d9	-0.07779855
136	0xb9adbb31	-0.000331366
137	0xbd8cada9	-0.068690605
138	0xbd59e77e	-0.053199284
139	0x3c9ce01b	0.01914983
140	0x3d792af4	0.06083198
141	0xbca64cdc	-0.020300321
142	0x3cf1e0a1	0.029526057
143	0x3beaa4e3	0.0071607693
144	0xbdcef143	-0.10104611
145	0xbd9c7140	-0.07638788
146	0xbdab7a26	-0.08372907
147	0xbd5a43f1	-0.05328745
148	0xbdfea4d9	-0.12433786
149	0xbdcd557a	-0.10026069
150	0xbd17aea6	-0.037031792
151	0x3caf36fd	0.021388525
152	0x3c339486	0.010960704
153	0x3bfbf760	0.0076894015
154	0x3d2796f6	0.040915452
155	0xbc734c61	-0.014849753
156	0xbcf11a19	-0.02943139
157	0xbc51fd4d	-0.012816739
158	0x3dae017d	0.084963776
159	0x3ce01c42	0.027357224
160	0xbe0046b3	-0.1252697
161	0xbd949345	-0.07254652
162	0xbcd85d43	-0.026411658
163	0x3cae8d96	0.021307748
164	0xbd1e07bd	-0.0385816
165	0x3b8b3d7a	0.004249272
166	0xbb0a01bc	-0.0021058163
167	0xbdba2c88	-0.09090525
168	0xbcaa9a61	-0.020825567
169	0xbd4bb84b	-0.049736302
170	0xbdad83f5	-0.084724344
171	0x3c85b10b	0.016319772
172	0xbc7fe598	-0.015618704
173	0x3d91c48e	0.07117568
174	0x3d82127d	0.063511826
175	0x3d00d217	0.031450357
176	0xbdc7496f	-0.09730803
177	0xbba792aa	-0.0051139193
178	0xbc00988a	-0.007848868
179	0x3c4ed6bd	0.01262444
180	0xbdf84ce5	-0.121240415
181	0xbd2927fc	-0.041297898
182	0xbd60177f	-0.054709908
183	0x3c40ca48	0.011766978
184	0xbd21a570	-0.039464414
185	0x3b1a5d99	0.0023554324
186	0xbd4b6ae0	-0.04966247
187	0x3d4d297f	0.050088402
188	0xba7aeb0f	-0.00095717696
189	0x3d9a160a	0.07523735
190	0x3d848e79	0.06472487
191	0x3b897153	0.0041944175
192	0xbd8e2326	-0.06940298
193	0x3d15cde0	0.03657329
194	0x3da93b48	0.0826326
195	0xbd1a4b20	-0.0376693
196	0xbd14a06c	-0.036285803
197	0x3d4f2874	0.05057569
198	0x3ca459cb	0.020062348
199	0xbc26d3b5	-0.010182311
200	0xbde1d50d	-0.11026964
201	0xbd550b91	-0.052012984
202	0x3c101499	0.008793973
203	0xbe07675e	-0.13223025
204	0xbd522bc0	-0.051311255
205	0x3d15f3b0	0.03660935
206	0x3d2f29c1	0.04276443
207	0xbd918a6d	-0.07106481
208	0xbd428534	-0.047490314
209	0x3d3ad0b6	0.0456092
210	0x3d1d57e8	0.038413912
211	0xbd46391d	-0.04839431
212	0xbdb92df9	-0.09041972
213	0xbd1fa3f5	-0.03897472
214	0xbc1a63e5	-0.009423231
215	0xbd3f9d21	-0.04678071
216	0xbe190614	-0.14943725
217	0xbdf29df1	-0.11846531
218	0xbdd99cff	-0.10625648
219	0xbe075b6f	-0.13218473
220	0x39d4fcca	0.00040624134
221	0xbd827f79	-0.0637197
222	0x3b8f5ffd	0.0043754564
223	0xbd4ee3c0	-0.050510168
224	0x3d3363a9	0.043796215
225	0x3d4dca01	0.050241474
226	0x3dabf650	0.0839659
227	0xbd372eea	-0.044722475
228	0x3ca71198	0.020394132
229	0x3d3104e5	0.04321756
230	0x3ba2c991	0.0049678762
231	0x3caed772	0.021342967
232	0xbd8445a3	-0.06458595
233	0xbd88d72a	-0.06681664
234	0xbcba1377	-0.02271436
235	0xbda809cc	-0.082049936
236	0x3d666b31	0.05625457
237	0x3c18001c	0.00927737
238	0x3c88fea0	0.016722977
239	0xbd52d045	-0.051468153
240	0xbcd646d5	-0.026156822
241	0xbc3dc29f	-0.011582046
242	0xbc7655d4	-0.015035111
243	0x3c6c6a6e	0.014429672
244	0xbcdacfa0	-0.026710331
245	0x3d35a9cf	0.044351395
246	0x3c1906ff	0.009340047
247	0xbd4e2279	-0.050325844
248	0x3c2453f1	0.010029779
249	0xbe01d325	-0.12678201
250	0xbc1c2870	-0.009531125
251	0xbd0ee167	-0.03488293
252	0xbcf64dba	-0.03006636
253	0xbd835743	-0.06413128
254	0x3c449d4d	0.012000394
255	0xbd62adf5	-0.05534168

conv2.bias f4 [8]
0	0x3ce30d75	0.027716378
1	0x3d850c76	0.06496517
2	0x3d8d1214	0.06888214
3	0xbc1d9dff	-0.009620189
4	0x3d217b8a	0.039424457
5	0xbd048f1c	-0.032363042
6	0x3d07c2b7	0.03314468
7	0xbb9d62da	-0.004803044

bn2.weight f4 [8]
0	0x3f5a9616	0.8538526
1	0x3f797e60	0.9745846
2	0x3f7434c9	0.95393044
3	0x3f49ca7c	0.7882459
4	0x3f556def	0.8337087
5	0x3fbd2398	1.4776487
6	0x3f3ff05a	0.7497612
7	0x3f4f9a03	0.8109438

bn2.bias f4 [8]
0	0xbe3963d7	-0.18104492
1	0xbe1358a9	-0.1438929
2	0xbd5f2b18	-0.054484457
3	0xbe4fd3b5	-0.20295604
4	0xbe61b668	-0.22042239
5	0xbd9ae96e	-0.075640544
6	0xbe604813	-0.21902494
7	0xbe144266	-0.14478454

bn2.running_mean f4 [8]
0	0xbf6f674d	-0.93517
1	0x3d5d0be4	0.053966418
2	0x3ba7c689	0.005120103
3	0x39001fc0	0.00012218859
4	0x3e06d4f5	0.13167174
5	0xbccb58aa	-0.024822552
6	0x3cad7175	0.021172265
7	0xbf591ced	-0.8480976

bn2.running_var f4 [8]
0	0x4002c5df	2.043327
1	0x3ecc39d0	0.39887857
2	0x3e9deca5	0.30844608
3	0x3f355d63	0.7084562
4	0x3f3889dd	0.7208536
5	0x3e049229	0.1294638
6	0x3effbf29	0.4995053
7	0x3fe77411	1.8082296

conv3.weight f4 [16, 8, 4, 4, 4]
0	0xbbb5e848	-0.0055513717
1	0x3b9bcb10	0.0047544315
2	0xbd327b4b	-0.043574613
3	0x3ca41c36	0.020032983
4	0xbc1a2c1c	-0.009409931
5	0x3ce238b6	0.027614933
6	0xbb0d3830	-0.0021548383
7	0x3d077c15	0.03307732
8	0x3a76b280	0.0009410754
9	0xbd215c1c	-0.039394483
10	0x3bc23fd8	0.005928021
11	0x3d25c057	0.040466633
12	0x3a956980	0.0011399239
13	0x3c88788c	0.016659044
14	0x3ca3d69a	0.019999791
15	0xbce30afc	-0.027715199
16	0xbcd5f629	-0.026118355
17	0x3cdccf9a	0.02695446
18	0xbd306c76	-0.043072186
19	0xbd32ac8b	-0.04362158
20	0xbd2e61a6	-0.042573594
21	0x3cd3120c	0.025765441
22	0x3cf5d033	0.030006504
23	0x3c9f5abd	0.019452447
24	0xbd0ae5ea	-0.03391067
25	0xbbc89060	-0.0061207265
26	0xba56ed30	-0.0008198796
27	0x3c419141	0.011814416
28	0x3cb1d642	0.021708611
29	0xbd85b41d	-0.065284945
30	0xbb9b929a	-0.004747701
31	0xbd7a62be	-0.061129324
32	0xbcb87804	-0.022518165
33	0xbc8c4cc5	-0.01712645
34	0x3cb2dfa6	0.02183516
35	0x3d126d91	0.035749022
36	0xbd1fcea8	-0.039015442
37	0x3c4ea8da	0.0126135
38	0x3c7695be	0.01505035
39	0xbd943f39	-0.07238621
40	0xbb100a50	-0.0021978803
41	0x3d4eb739	0.050467703
42	0x3cc2021c	0.023682646
43	0xbd9d80e6	-0.07690601
44	0x3c1ac0b0	0.009445354
45	0xbd7192f9	-0.058978055
46	0xbcdf4450	-0.027254254
47	0x3d534d1d	0.051587213
48	0xbc9d56c7	-0.019206418
49	0xbc7073f2	-0.014676081
50	0x3c7aee20	0.0153155625
51	0xbcbb6cc3	-0.02287901
52	0x3c431ef8	0.011909239
53	0x3ac7fb99	0.0015257477
54	0xbc055a5b	-0.008139218
55	0x3a74bdd3	0.00093361473
56	0xbd311ec6	-0.04324224
57	0x3bf97c36	0.007613684
58	0x3d677fce	0.05651837
59	0x3bca5dab	0.006175717
60	0xbd29439e	-0.04132425
61	0x3c0cd1c9	0.008594939
62	0x3c94c91b	0.0181623
63	0x3d35710a	0.044297256
64	0x3d08524b	0.033281606
65	0x3c8b76d4	0.017024435
66	0x3d10a33f	0.035311934
67	0xbcbad25c	-0.022805385
68	0xbd0e9db2	-0.03481836
69	0xbca4cc6c	-0.020117007
70	0xbd183ceb	-0.03716747
71	0x3d2ce129	0.042206917
72	0x3c0c2670	0.008554086
73	0xbcdce9cb	-0.02696695
74	0xbcd49c16	-0.025953334
75	0xbd00695e	-0.031350486
76	0x3c35f770	0.011106357
77	0x3c13306c	0.008983713
78	0xbd2eb24a	-0.0426505
79	0xbcb09bf4	-0.02155874
80	0xb9730c00	-0.00023178756
81	0xbcc7bfb5	-0.024383405
82	0xbd044014	-0.032287672
83	0x3ccc71aa	0.024956543
84	0x3c86de50	0.016463429
85	0x3d3b4f30	0.045729816
86	0x3ca96128	0.02067621
87	0x3d957207	0.072971396
88	0xbd2dcf80	-0.042434216
89	0x3d8c02fa	0.06836505
90	0x3c7e0076	0.01550304
91	0x3d5fae66	0.05460968
92	0xbcc3f679	-0.023921238
93	0x3c81a3e8	0.015825227
94	0xbd87fdc2	-0.06640197
95	0xbd1c0d41	-0.038098577
96	0x3c4182d8	0.011810981
97	0x3d1c41d7	0.038148727
98	0x3c1c9d0c	0.009558927
99	0xbd2d5be8	-0.042323977
100	0x3c23d780	0.01000011
101	0xbd52e50c	-0.051487967
102	0x3c22c862	0.00993547
103	0x3d521ee2	0.051298983
104	0x3a3f2ec0	0.0007293038
105	0xbc90a745	-0.017657885
106	0xbd9c59e6	-0.07634334
107	0x3c6a38be	0.014295755
108	0x3bf65618	0.0075175874
109	0xbd90ec22	-0.07076289
110	0xbcdd7841	-0.02703488
111	0xbdbeb085	-0.09311012
112	0xbc98cb97	-0.018651767
113	0xbba91cc0	-0.005160898
114	0xbc560cc6	-0.013064569
115	0x3d2da1c9	0.04239062
116	0x3ce10eb6	0.027472835
117	0x3d232b95	0.039836485
118	0x3d7ecf06	0.06220915
119	0x3d713485	0.058887977
120	0x3ce2393e	0.027615186
121	0xbd2946e1	-0.04132736
122	0xbd332a63	-0.043741595
123	0xbd852ecd	-0.06503067
124	0xbb611100	-0.0034342408
125	0xbd82062a	-0.06348832
126	0xbd1280a6	-0.03576722
127	0xbd5c10a9	-0.053726826
128	0x3cce5d7e	0.025191065
129	0x3d24cb53	0.040232968
130	0xbcaa5e6f	-0.020796983
131	0xbcbc6cbf	-0.023001073
132	0xbc56a58e	-0.013100995
133	0xbd33d7fd	-0.043907154
134	0xbce21da6	-0.027602028
135	0xbd173df2	-0.03692431
136	0x3d24ca23	0.040231835
137	0xbd107196	-0.035264574
138	0x3d10973b	0.035300475
139	0x3c0f9e20	0.008765727
140	0xbcc8bf59	-0.024505304
141	0x3cadbf96	0.02120952
142	0xb970e000	-0.0002297163
143	0xbd32b146	-0.043626092
144	0x3d26b299	0.040697668
145	0x3d2ef87d	0.042717446
146	0xbd0b77b2	-0.034049697
147	0x3cae4342	0.021272305
148	0x3bcbfe68	0.006225396
149	0xbcc8a7a9	-0.02449401
150	0x3abb7915	0.0014303053
151	0x3d00a0af	0.03140324
152	0xbd008354	-0.031375244
153	0xbd2680ef	-0.040650304
154	0x3c893b6f	0.016751973
155	0xbae748ac	-0.0017645559
156	0xbd217adb	-0.039423805
157	0xbc9107ce	-0.017703917
158	0xbd95d67a	-0.07316299
159	0xbc9cac5b	-0.019125154
160	0x3c18ded8	0.009330474
161	0x3d1019fd	0.035181034
162	0x3d1b47b9	0.037910197
163	0xbc064e0c	-0.008197319
164	0xbcb0d417	-0.021585507
165	0x3c261e6e	0.010139091
166	0x3b17e72f	0.0023178568
167	0x3df92567	0.12165337
168	0xbc64485e	-0.013933269
169	0x3c18f4cb	0.009335707
170	0xbd0a6069	-0.03378335
171	0x3db6b6de	0.08921598
172	0x3c8a61e8	0.016892388
173	0x3d140d0a	0.036145248
174	0xbe07f341	-0.13276388
175	0xbd4e369f	-0.05034506
176	0x3c6961cc	0.014244508
177	0xbcf6a2e4	-0.03010697
178	0x3b6fb910	0.0036578812
179	0xbcb80ad0	-0.022466093
180	0xbceb8524	-0.02875001
181	0xbc671084	-0.014103059
182	0x3c58dd21	0.013236315
183	0x3b583498	0.0032990333
184	0xbc887d8c	-0.016661428
185	0x3c28e208	0.010307796
186	0x3b7650b1	0.0037584717
187	0xbd1204ae	-0.035648994
188	0xbd1417d1	-0.036155526
189	0x3d830379	0.06397147
190	0xbd596da8	-0.053083092
191	0xbd88c91d	-0.06678984
192	0xbcbd994d	-0.023144389
193	0x3d0c32a1	0.03422797
194	0x3c3380c4	0.010955993
195	0xbd10e768	-0.035376936
196	0xbc1c2b20	-0.009531766
197	0x3d0e9ae3	0.03481568
198	0x3d26badb	0.040705543
199	0x3c388d08	0.011264093
200	0xbd1c434e	-0.038150124
201	0xbcc6bab5	-0.02425895
202	0x3d0a6b7f	0.033793923
203	0xbc0655c8	-0.008199163
204	0xbc281b5c	-0.010260429
205	0xbcb45b6e	-0.022016253
206	0x3a1f1c80	0.00060696155
207	0x3d28397d	0.04107045
208	0x3c3b4f84	0.011432532
209	0xbd2a7536	-0.041615687
210	0xbcbfef6d	-0.023429597
211	0x3ca4d6b6	0.020121913
212	0xbaedebe0	-0.0018151961
213	0xbd20c564	-0.039250746
214	0xbc542ffa	-0.012950892
215	0x3d05ba16	0.03264817
216	0xba98d4c0	-0.0011660084
217	0x3cb6aa32	0.022297952
218	0x3cfbdabe	0.030743953
219	0xbd508104	-0.05090429
220	0xbb88c548	-0.0041739084
221	0x3d427a6b	0.047480028
222	0x3cbfd533	0.023417091
223	0x3ca62efe	0.02028608
224	0xbc9b0ac1	-0.018926026
225	0x3d18eb27	0.037333634
226	0xbc8c857b	-0.017153492
227	0xbcd4f4ed	-0.025995696
228	0xbd122576	-0.035680257
229	0xbd03f583	-0.03221656
230	0xbb03ae34	-0.0020092847
231	0x3c3040fa	0.010757679
232	0xbd076e4e	-0.03306418
233	0x3d2e73c0	0.042590857
234	0x3cd02d4f	0.02541223
235	0xbb3957f8	-0.0028281193
236	0xbab4a8e0	-0.0013783239
237	0xbd034d60	-0.032056212
238	0x3a8a1d54	0.0010537305
239	0xbca50fb9	-0.020149099
240	0x3c659048	0.01401145
241	0xbc957cd1	-0.018247994
242	0xb9383600	-0.00017567724
243	0xbd2e3e84	-0.04254009
244	0xbce839f2	-0.028347943
245	0x3d404089	0.046936546
246	0xbd0db62a	-0.034597553
247	0xbc2ad388	-0.01042641
248	0x3c136c70	0.0089980215
249	0x3d82f405	0.06394199
250	0xbb642930	-0.0034814589
251	0x3b5d6632	0.0033782837
252	0x3c803c26	0.015653681
253	0xbcbd03ee	-0.023073163
254	0x3cf50d5f	0.029913602
255	0xbd3af5ca	-0.04564456

conv3.bias f4 [16]
0	0x3b318863	0.002708935
1	0x3cc5f829	0.024166184
2	0xbbb14791	-0.0054101427
3	0xbd1526b5	-0.036413867
4	0xbd188901	-0.037240032
5	0x3c7b5b2f	0.015341564
6	0xbd768d71	-0.060193483
7	0x3cfe7a34	0.03106413
8	0xbd63079e	-0.055427186
9	0x3c96e9d5	0.018422047
10	0x3d1a818b	0.037721198
11	0xbc5fd776	-0.01366221
12	0xbd21434b	-0.039370816
13	0xbd27001e	-0.040771596
14	0xbc681646	-0.014165467
15	0xbc986718	-0.018603846

bn3.weight f4 [16]
0	0x3f8f85ea	1.1212742
1	0x3fb874a4	1.4410596
2	0x3fb15e50	1.3856907
3	0x3fcf4bbc	1.6194987
4	0x3fa1cc17	1.2640408
5	0x3fa368f8	1.2766409
6	0x3fb9bd41	1.4510881
7	0x3fae850c	1.3634353
8	0x3fb59461	1.4185907
9	0x3faf564e	1.3698213
10	0x3fb36b03	1.4017032
11	0x3fa262fb	1.2686456
12	0x3fb0c481	1.3809968
13	0x3fbb9c60	1.4657097
14	0x3faa1b61	1.3289605
15	0x3fd1311a	1.634311

bn3.bias f4 [16]
0	0x3e175c52	0.14781311
1	0x3e4a8a4e	0.19779322
2	0x3e97c753	0.2964426
3	0x3e7d477e	0.24734303
4	0x3e19c04c	0.15014762
5	0x3e4a3892	0.19748142
6	0x3eb81b68	0.3595841
7	0x3e288f38	0.16460884
8	0x3ea68829	0.32525757
9	0x3e7bbe53	0.24584322
10	0x3e6544a5	0.22389467
11	0x3e4f98b0	0.2027309
12	0x3e9e9a91	0.309773
13	0x3eb45898	0.35223842
14	0x3e3d015e	0.18457553
15	0x3e548f53	0.20757799

bn3.running_mean f4 [16]
0	0xbdc14512	-0.09437002
1	0x3e0bfc39	0.13670434
2	0xbd0bb903	-0.034111988
3	0x3d0c9497	0.034321394
4	0xbdf1bc62	-0.11803509
5	0xbd4e1561	-0.050313357
6	0xbe21f3a0	-0.15815592
7	0x3e0bd9b1	0.13657261
8	0xbe09a05c	-0.13440078
9	0xbd9a9aa5	-0.07549027
10	0x3cd39858	0.02582948
11	0xbcd34443	-0.025789386
12	0xbda17ae6	-0.07884769
13	0xbe22baf3	-0.15891628
14	0xbe764f6f	-0.24053739
15	0x3e03d334	0.12873536

bn3.running_var f4 [16]
0	0x3cdf5a46	0.027264725
1	0x3e6d33d4	0.23164302
2	0x3d9ee6e7	0.07758885
3	0x3ea5f701	0.32415012
4	0x3dd942b9	0.106084295
5	0x3d6bdaeb	0.057581823
6	0x3da539b2	0.08067645
7	0x3eb1839e	0.34670728
8	0x3d811aff	0.06303977
9	0x3d908f13	0.07058539
10	0x3e2f2dc0	0.17107296
11	0x3d3bf5b6	0.045888625
12	0x3d7dbcb5	0.061947543
13	0x3da95b1c	0.08269331
14	0x3de15a30	0.1100353
15	0x3ed616f0	0.41814375

linear.weight f4 [2, 16]
0	0xbdd3e06a	-0.10345538
1	0xbed13637	-0.40861675
2	0x3ec00337	0.37502453
3	0xbed8da38	-0.42353988
4	0xbeb171b1	-0.34657052
5	0xbee91f9a	-0.45531923
6	0x3e5be9c4	0.21475893
7	0xbecf8ec8	-0.4053862
8	0x3e74a3f6	0.23890671
9	0xbef7ce3d	-0.48399535
10	0xbeb23bed	-0.34811345
11	0xbea5fea5	-0.3242084
12	0x3efe5532	0.49674374
13	0x3ea41867	0.32049868
14	0xbe8f41e1	-0.2797995
15	0xbeab1b07	-0.33419058
16	0x3ea02c08	0.31283593
17	0x3f08bf95	0.5341733
18	0xbeccfcab	-0.4003652
19	0x3ed81507	0.42203543
20	0x3e66af7c	0.2252788
21	0x3ef6e4d4	0.48221457
22	0xbedc8090	-0.43066835
23	0x3ef81b8b	0.48458514
24	0xbed43cf3	-0.4145275
25	0x3f0b3085	0.5437091
26	0x3e399e67	0.18126832
27	0x3edcdb15	0.43135896
28	0xbe53eccf	-0.20695804
29	0xbe9866ee	-0.2976603
30	0x3e817f31	0.25292352
31	0x3e9eae9b	0.30992588

linear.bias f4 [2]
0	0x3e7387df	0.237823
1	0x3ddce855	0.10786501
